…
m=0.8, warmup_bias_lr=0.1, box=7.5, cls=0.5, dfl=1.5, pose=12.0, kobj=1.0, nbs=64, hsv_h=0.015, hsv_s=0.7, hsv_v=0.4, degrees=0.0, translate=0.1, scale=0.5, shear=0.0, perspective=0.0, flipud=0.0, fliplr=0.5, bgr=0.0, mosaic=1.0, mixup=0.0, copy_paste=0.0, copy_paste_mode=flip, auto_augment=randaugment, erasing=0.4, crop_fraction=1.0, cfg=None, tracker=botsort.yaml, save_dir=runs/detect/train4
Overriding model.yaml nc=80 with nc=3

                   from  n    params  module                                       arguments                     
  0                  -1  1       464  ultralytics.nn.modules.conv.Conv             [3, 16, 3, 2]                 
  1                  -1  1      4672  ultralytics.nn.modules.conv.Conv             [16, 32, 3, 2]                
  2                  -1  1      6640  ultralytics.nn.modules.block.C3k2            [32, 64, 1, False, 0.25]      
  3                  -1  1     36992  ultralytics.nn.modules.conv.Conv             [64, 64, 3, 2]                
  4                  -1  1     26080  ultralytics.nn.modules.block.C3k2            [64, 128, 1, False, 0.25]     
  5                  -1  1    147712  ultralytics.nn.modules.conv.Conv             [128, 128, 3, 2]              
  6                  -1  2    180864  ultralytics.nn.modules.block.A2C2f           [128, 128, 2, True, 4]        
  7                  -1  1    295424  ultralytics.nn.modules.conv.Conv             [128, 256, 3, 2]              
  8                  -1  2    689408  ultralytics.nn.modules.block.A2C2f           [256, 256, 2, True, 1]        
  9                  -1  1         0  torch.nn.modules.upsampling.Upsample         [None, 2, 'nearest']          
 10             [-1, 6]  1         0  ultralytics.nn.modules.conv.Concat           [1]                           
 11                  -1  1     86912  ultralytics.nn.modules.block.A2C2f           [384, 128, 1, False, -1]      
 12                  -1  1         0  torch.nn.modules.upsampling.Upsample         [None, 2, 'nearest']          
 13             [-1, 4]  1         0  ultralytics.nn.modules.conv.Concat           [1]                           
 14                  -1  1     24000  ultralytics.nn.modules.block.A2C2f           [256, 64, 1, False, -1]       
 15                  -1  1     36992  ultralytics.nn.modules.conv.Conv             [64, 64, 3, 2]                
 16            [-1, 11]  1         0  ultralytics.nn.modules.conv.Concat           [1]                           
 17                  -1  1     74624  ultralytics.nn.modules.block.A2C2f           [192, 128, 1, False, -1]      
 18                  -1  1    147712  ultralytics.nn.modules.conv.Conv             [128, 128, 3, 2]              
 19             [-1, 8]  1         0  ultralytics.nn.modules.conv.Concat           [1]                           
 20                  -1  1    378880  ultralytics.nn.modules.block.C3k2            [384, 256, 1, True]           
 21        [14, 17, 20]  1    431257  ultralytics.nn.modules.head.Detect           [3, [64, 128, 256]]           
YOLOv12n summary: 272 layers, 2,568,633 parameters, 2,568,617 gradients, 6.5 GFLOPs

Transferred 640/691 items from pretrained weights
Freezing layer 'model.21.dfl.conv.weight'
[34m[1mAMP: [0mrunning Automatic Mixed Precision (AMP) checks...
[34m[1mAMP: [0mchecks passed âœ…
[34m[1mtrain: [0mScanning /mnt/instance-store/atraining/atraining/train/labels.cache... 5000 images, 0 backgrounds, 0 corrupt: 100%|â–ˆâ–ˆâ–ˆâ–ˆâ–ˆâ–ˆâ–ˆâ–ˆâ–ˆâ–ˆ| 5000/5000 [00:00<?, ?it/s][34m[1mtrain: [0mScanning /mnt/instance-store/atraining/atraining/train/labels.cache... 5000 images, 0 backgrounds, 0 corrupt: 100%|â–ˆâ–ˆâ–ˆâ–ˆâ–ˆâ–ˆâ–ˆâ–ˆâ–ˆâ–ˆ| 5000/5000 [00:00<?, ?it/s]
…
